…
========>...] - ETA: 0s448/480 [===========================>..] - ETA: 0s464/480 [============================>.] - ETA: 0sModel: "model"
_________________________________________________________________
 Layer (type)                Output Shape              Param #   
=================================================================
 input_x (InputLayer)        [(None, 16, 29)]          0         
                                                                 
 batch_normalization (BatchN  (None, 16, 29)           116       
 ormalization)                                                   
                                                                 
 tf.reshape (TFOpLambda)     (None, 16, 1, 29)         0         
                                                                 
 conv1 (Conv2D)              (None, 8, 1, 32)          2816      
                                                                 
 conv2 (Conv2D)              (None, 4, 1, 32)          3104      
                                                                 
 conv3 (Conv2D)              (None, 2, 1, 64)          6208      
                                                                 
 conv4 (Conv2D)              (None, 1, 1, 64)          12352     
                                                                 
 flatten (Flatten)           (None, 64)                0         
                                                                 
 fc1 (Dense)                 (None, 128)               8320      
                                                                 
 fc2 (Dense)                 (None, 50)                6450      
                                                                 
 fc3 (Dense)                 (None, 115)               5865      
                                                                 
 concat_shape_layer (ConcatS  (None, 415)              300       
 hapeLayer)                                                      
                                                                 
=================================================================
Total params: 45,531
Trainable params: 45,473
Non-trainable params: 58
_________________________________________________________________
tf.Tensor(
[ … shape=(29,), dtype=float32)
tf.Tensor(
[ … shape=(29,), dtype=float32)
…
